…
LoraConfig(peft_type=<PeftType.LORA: 'LORA'>, auto_mapping=None, base_model_name_or_path=None, revision=None, task_type='CAUSAL_LM', inference_mode=False, r=8, target_modules={'embed_tokens'}, lora_alpha=32, lora_dropout=0.1, fan_in_fan_out=False, bias='none', use_rslora=False, modules_to_save=None, init_lora_weights=True, layers_to_transform=None, layers_pattern=None, rank_pattern={}, alpha_pattern={}, megatron_config=None, megatron_core='megatron.core', loftq_config={}, use_dora=False, layer_replication=None, runtime_config=LoraRuntimeConfig(ephemeral_gpu_offload=False))
####################
model info.
####################
PeftModelForCausalLM(
  (base_model): LoraModel(
    (model): LlamaForCausalLM(
      (model): LlamaModel(
        (embed_tokens): lora.Embedding(
          (base_layer): Embedding(32256, 4096)
          (lora_dropout): ModuleDict(
            (default): Dropout(p=0.1, inplace=False)
          )
          (lora_A): ModuleDict()
          (lora_B): ModuleDict()
          (lora_embedding_A): ParameterDict(  (default): Parameter containing: [torch.FloatTensor of size 8x32256])
          (lora_embedding_B): ParameterDict(  (default): Parameter containing: [torch.FloatTensor of size 4096x8])
          (lora_magnitude_vector): ModuleDict()
        )
        (layers): ModuleList(
          (0): LlamaDecoderLayer(
            (self_attn): LlamaAttention(
              (q_proj): Linear(in_features=4096, out_features=4096, bias=False)
              (k_proj): Linear(in_features=4096, out_features=1024, bias=False)
              (v_proj): Linear(in_features=4096, out_features=1024, bias=False)
              (o_proj): Linear(in_features=4096, out_features=4096, bias=False)
              (rotary_emb): LlamaRotaryEmbedding()
            )
            (mlp): LlamaMLP(
              (gate_proj): Linear(in_features=4096, out_features=14336, bias=False)
              (up_proj): Linear(in_features=4096, out_features=14336, bias=False)
              (down_proj): Linear(in_features=14336, out_features=4096, bias=False)
              (act_fn): SiLU()
            )
            (input_layernorm): LlamaRMSNorm((4096,), eps=1e-05)
            (post_attention_layernorm): LlamaRMSNorm((4096,), eps=1e-05)
          )
          (1): LlamaDecoderLayer(
            (self_attn): LlamaAttention(
              (q_proj): Linear(in_features=4096, out_features=4096, bias=False)
              (k_proj): Linear(in_features=4096, out_features=1024, bias=False)
              (v_proj): Linear(in_features=4096, out_features=1024, bias=False)
              (o_proj): Linear(in_features=4096, out_features=4096, bias=False)
              (rotary_emb): LlamaRotaryEmbedding()
            )
            (mlp): LlamaMLP(
              (gate_proj): Linear(in_features=4096, out_features=14336, bias=False)
              (up_proj): Linear(in_features=4096, out_features=14336, bias=False)
              (down_proj): Linear(in_features=14336, out_features=4096, bias=False)
              (act_fn): SiLU()
            )
            (input_layernorm): LlamaRMSNorm((4096,), eps=1e-05)
            (post_attention_layernorm): LlamaRMSNorm((4096,), eps=1e-05)
          )
          (2): LlamaDecoderLayer(
            (self_attn): LlamaAttention(
              (q_proj): Linear(in_features=4096, out_features=4096, bias=False)
              (k_proj): Linear(in_features=4096, out_features=1024, bias=False)
              (v_proj): Linear(in_features=4096, out_features=1024, bias=False)
              (o_proj): Linear(in_features=4096, out_features=4096, bias=False)
              (rotary_emb): LlamaRotaryEmbedding()
            )
            (mlp): LlamaMLP(
              (gate_proj): Linear(in_features=4096, out_features=14336, bias=False)
              (up_proj): Linear(in_features=4096, out_features=14336, bias=False)
              (down_proj): Linear(in_features=14336, out_features=4096, bias=False)
              (act_fn): SiLU()
            )
            (input_layernorm): LlamaRMSNorm((4096,), eps=1e-05)
            (post_attention_layernorm): LlamaRMSNorm((4096,), eps=1e-05)
          )
          (3): LlamaDecoderLayer(
            (self_attn): LlamaAttention(
              (q_proj): Linear(in_features=4096, out_features=4096, bias=False)
              (k_proj): Linear(in_features=4096, out_features=1024, bias=False)
              (v_proj): Linear(in_features=4096, out_features=1024, bias=False)
              (o_proj): Linear(in_features=4096, out_features=4096, bias=False)
              (rotary_emb): LlamaRotaryEmbedding()
            )
            (mlp): LlamaMLP(
              (gate_proj): Linear(in_features=4096, out_features=14336, bias=False)
              (up_proj): Linear(in_features=4096, out_features=14336, bias=False)
              (down_proj): Linear(in_features=14336, out_features=4096, bias=False)
              (act_fn): SiLU()
            )
            (input_layernorm): LlamaRMSNorm((4096,), eps=1e-05)
            (post_attention_layernorm): LlamaRMSNorm((4096,), eps=1e-05)
          )
          (4): LlamaDecoderLayer(
            (self_attn): LlamaAttention(
              (q_proj): Linear(in_features=4096, out_features=4096, bias=False)
              (k_proj): Linear(in_features=4096, out_features=1024, bias=False)
              (v_proj): Linear(in_features=4096, out_features=1024, bias=False)
              (o_proj): Linear(in_features=4096, out_features=4096, bias=False)
              (rotary_emb): LlamaRotaryEmbedding()
            )
            (mlp): LlamaMLP(
              (gate_proj): Linear(in_features=4096, out_features=14336, bias=False)
              (up_proj): Linear(in_features=4096, out_features=14336, bias=False)
              (down_proj): Linear(in_features=14336, out_features=4096, bias=False)
              (act_fn): SiLU()
            )
            (input_layernorm): LlamaRMSNorm((4096,), eps=1e-05)
            (post_attention_layernorm): LlamaRMSNorm((4096,), eps=1e-05)
          )
          (5): LlamaDecoderLayer(
            (self_attn): LlamaAttention(
              (q_proj): Linear(in_features=4096, out_features=4096, bias=False)
              (k_proj): Linear(in_features=4096, out_features=1024, bias=False)
              (v_proj): Linear(in_features=4096, out_features=1024, bias=False)
              (o_proj): Linear(in_features=4096, out_features=4096, bias=False)
              (rotary_emb): LlamaRotaryEmbedding()
            )
            (mlp): LlamaMLP(
              (gate_proj): Linear(in_features=4096, out_features=14336, bias=False)
              (up_proj): Linear(in_features=4096, out_features=14336, bias=False)
              (down_proj): Linear(in_features=14336, out_features=4096, bias=False)
              (act_fn): SiLU()
            )
            (input_layernorm): LlamaRMSNorm((4096,), eps=1e-05)
            (post_attention_layernorm): LlamaRMSNorm((4096,), eps=1e-05)
          )
          (6): LlamaDecoderLayer(
            (self_attn): LlamaAttention(
              (q_proj): Linear(in_features=4096, out_features=4096, bias=False)
              (k_proj): Linear(in_features=4096, out_features=1024, bias=False)
              (v_proj): Linear(in_features=4096, out_features=1024, bias=False)
              (o_proj): Linear(in_features=4096, out_features=4096, bias=False)
              (rotary_emb): LlamaRotaryEmbedding()
            )
            (mlp): LlamaMLP(
              (gate_proj): Linear(in_features=4096, out_features=14336, bias=False)
              (up_proj): Linear(in_features=4096, out_features=14336, bias=False)
              (down_proj): Linear(in_features=14336, out_features=4096, bias=False)
              (act_fn): SiLU()
            )
            (input_layernorm): LlamaRMSNorm((4096,), eps=1e-05)
            (post_attention_layernorm): LlamaRMSNorm((4096,), eps=1e-05)
          )
          (7): LlamaDecoderLayer(
            (self_attn): LlamaAttention(
              (q_proj): Linear(in_features=4096, out_features=4096, bias=False)
              (k_proj): Linear(in_features=4096, out_features=1024, bias=False)
              (v_proj): Linear(in_features=4096, out_features=1024, bias=False)
              (o_proj): Linear(in_features=4096, out_features=4096, bias=False)
              (rotary_emb): LlamaRotaryEmbedding()
            )
            (mlp): LlamaMLP(
              (gate_proj): Linear(in_features=4096, out_features=14336, bias=False)
              (up_proj): Linear(in_features=4096, out_features=14336, bias=False)
              (down_proj): Linear(in_features=14336, out_features=4096, bias=False)
              (act_fn): SiLU()
            )
            (input_layernorm): LlamaRMSNorm((4096,), eps=1e-05)
            (post_attention_layernorm): LlamaRMSNorm((4096,), eps=1e-05)
          )
          (8): LlamaDecoderLayer(
            (self_attn): LlamaAttention(
              (q_proj): Linear(in_features=4096, out_features=4096, bias=False)
              (k_proj): Linear(in_features=4096, out_features=1024, bias=False)
              (v_proj): Linear(in_features=4096, out_features=1024, bias=False)
              (o_proj): Linear(in_features=4096, out_features=4096, bias=False)
              (rotary_emb): LlamaRotaryEmbedding()
            )
            (mlp): LlamaMLP(
              (gate_proj): Linear(in_features=4096, out_features=14336, bias=False)
              (up_proj): Linear(in_features=4096, out_features=14336, bias=False)
              (down_proj): Linear(in_features=14336, out_features=4096, bias=False)
              (act_fn): SiLU()
            )
            (input_layernorm): LlamaRMSNorm((4096,), eps=1e-05)
            (post_attention_layernorm): LlamaRMSNorm((4096,), eps=1e-05)
          )
          (9): LlamaDecoderLayer(
            (self_attn): LlamaAttention(
              (q_proj): Linear(in_features=4096, out_features=4096, bias=False)
              (k_proj): Linear(in_features=4096, out_features=1024, bias=False)
              (v_proj): Linear(in_features=4096, out_features=1024, bias=False)
              (o_proj): Linear(in_features=4096, out_features=4096, bias=False)
              (rotary_emb): LlamaRotaryEmbedding()
            )
            (mlp): LlamaMLP(
              (gate_proj): Linear(in_features=4096, out_features=14336, bias=False)
              (up_proj): Linear(in_features=4096, out_features=14336, bias=False)
              (down_proj): Linear(in_features=14336, out_features=4096, bias=False)
              (act_fn): SiLU()
            )
            (input_layernorm): LlamaRMSNorm((4096,), eps=1e-05)
            (post_attention_layernorm): LlamaRMSNorm((4096,), eps=1e-05)
          )
          (10): LlamaDecoderLayer(
            (self_attn): LlamaAttention(
              (q_proj): Linear(in_features=4096, out_features=4096, bias=False)
              (k_proj): Linear(in_features=4096, out_features=1024, bias=False)
              (v_proj): Linear(in_features=4096, out_features=1024, bias=False)
              (o_proj): Linear(in_features=4096, out_features=4096, bias=False)
              (rotary_emb): LlamaRotaryEmbedding()
            )
            (mlp): LlamaMLP(
              (gate_proj): Linear(in_features=4096, out_features=14336, bias=False)
              (up_proj): Linear(in_features=4096, out_features=14336, bias=False)
              (down_proj): Linear(in_features=14336, out_features=4096, bias=False)
              (act_fn): SiLU()
            )
            (input_layernorm): LlamaRMSNorm((4096,), eps=1e-05)
            (post_attention_layernorm): LlamaRMSNorm((4096,), eps=1e-05)
          )
          (11): LlamaDecoderLayer(
            (self_attn): LlamaAttention(
              (q_proj): Linear(in_features=4096, out_features=4096, bias=False)
              (k_proj): Linear(in_features=4096, out_features=1024, bias=False)
              (v_proj): Linear(in_features=4096, out_features=1024, bias=False)
              (o_proj): Linear(in_features=4096, out_features=4096, bias=False)
              (rotary_emb): LlamaRotaryEmbedding()
            )
            (mlp): LlamaMLP(
              (gate_proj): Linear(in_features=4096, out_features=14336, bias=False)
              (up_proj): Linear(in_features=4096, out_features=14336, bias=False)
              (down_proj): Linear(in_features=14336, out_features=4096, bias=False)
              (act_fn): SiLU()
            )
            (input_layernorm): LlamaRMSNorm((4096,), eps=1e-05)
            (post_attention_layernorm): LlamaRMSNorm((4096,), eps=1e-05)
          )
          (12): LlamaDecoderLayer(
            (self_attn): LlamaAttention(
              (q_proj): Linear(in_features=4096, out_features=4096, bias=False)
              (k_proj): Linear(in_features=4096, out_features=1024, bias=False)
              (v_proj): Linear(in_features=4096, out_features=1024, bias=False)
              (o_proj): Linear(in_features=4096, out_features=4096, bias=False)
              (rotary_emb): LlamaRotaryEmbedding()
            )
            (mlp): LlamaMLP(
              (gate_proj): Linear(in_features=4096, out_features=14336, bias=False)
              (up_proj): Linear(in_features=4096, out_features=14336, bias=False)
              (down_proj): Linear(in_features=14336, out_features=4096, bias=False)
              (act_fn): SiLU()
            )
            (input_layernorm): LlamaRMSNorm((4096,), eps=1e-05)
            (post_attention_layernorm): LlamaRMSNorm((4096,), eps=1e-05)
          )
          (13): LlamaDecoderLayer(
            (self_attn): LlamaAttention(
              (q_proj): Linear(in_features=4096, out_features=4096, bias=False)
              (k_proj): Linear(in_features=4096, out_features=1024, bias=False)
              (v_proj): Linear(in_features=4096, out_features=1024, bias=False)
              (o_proj): Linear(in_features=4096, out_features=4096, bias=False)
              (rotary_emb): LlamaRotaryEmbedding()
            )
            (mlp): LlamaMLP(
              (gate_proj): Linear(in_features=4096, out_features=14336, bias=False)
              (up_proj): Linear(in_features=4096, out_features=14336, bias=False)
              (down_proj): Linear(in_features=14336, out_features=4096, bias=False)
              (act_fn): SiLU()
            )
            (input_layernorm): LlamaRMSNorm((4096,), eps=1e-05)
            (post_attention_layernorm): LlamaRMSNorm((4096,), eps=1e-05)
          )
          (14): LlamaDecoderLayer(
            (self_attn): LlamaAttention(
              (q_proj): Linear(in_features=4096, out_features=4096, bias=False)
              (k_proj): Linear(in_features=4096, out_features=1024, bias=False)
              (v_proj): Linear(in_features=4096, out_features=1024, bias=False)
              (o_proj): Linear(in_features=4096, out_features=4096, bias=False)
              (rotary_emb): LlamaRotaryEmbedding()
            )
            (mlp): LlamaMLP(
              (gate_proj): Linear(in_features=4096, out_features=14336, bias=False)
              (up_proj): Linear(in_features=4096, out_features=14336, bias=False)
              (down_proj): Linear(in_features=14336, out_features=4096, bias=False)
              (act_fn): SiLU()
            )
            (input_layernorm): LlamaRMSNorm((4096,), eps=1e-05)
            (post_attention_layernorm): LlamaRMSNorm((4096,), eps=1e-05)
          )
          (15): LlamaDecoderLayer(
            (self_attn): LlamaAttention(
              (q_proj): Linear(in_features=4096, out_features=4096, bias=False)
              (k_proj): Linear(in_features=4096, out_features=1024, bias=False)
              (v_proj): Linear(in_features=4096, out_features=1024, bias=False)
              (o_proj): Linear(in_features=4096, out_features=4096, bias=False)
              (rotary_emb): LlamaRotaryEmbedding()
            )
            (mlp): LlamaMLP(
              (gate_proj): Linear(in_features=4096, out_features=14336, bias=False)
              (up_proj): Linear(in_features=4096, out_features=14336, bias=False)
              (down_proj): Linear(in_features=14336, out_features=4096, bias=False)
              (act_fn): SiLU()
            )
            (input_layernorm): LlamaRMSNorm((4096,), eps=1e-05)
            (post_attention_layernorm): LlamaRMSNorm((4096,), eps=1e-05)
          )
          (16): LlamaDecoderLayer(
            (self_attn): LlamaAttention(
              (q_proj): Linear(in_features=4096, out_features=4096, bias=False)
              (k_proj): Linear(in_features=4096, out_features=1024, bias=False)
              (v_proj): Linear(in_features=4096, out_features=1024, bias=False)
              (o_proj): Linear(in_features=4096, out_features=4096, bias=False)
              (rotary_emb): LlamaRotaryEmbedding()
            )
            (mlp): LlamaMLP(
              (gate_proj): Linear(in_features=4096, out_features=14336, bias=False)
              (up_proj): Linear(in_features=4096, out_features=14336, bias=False)
              (down_proj): Linear(in_features=14336, out_features=4096, bias=False)
              (act_fn): SiLU()
            )
            (input_layernorm): LlamaRMSNorm((4096,), eps=1e-05)
            (post_attention_layernorm): LlamaRMSNorm((4096,), eps=1e-05)
          )
          (17): LlamaDecoderLayer(
            (self_attn): LlamaAttention(
              (q_proj): Linear(in_features=4096, out_features=4096, bias=False)
              (k_proj): Linear(in_features=4096, out_features=1024, bias=False)
              (v_proj): Linear(in_features=4096, out_features=1024, bias=False)
              (o_proj): Linear(in_features=4096, out_features=4096, bias=False)
              (rotary_emb): LlamaRotaryEmbedding()
            )
            (mlp): LlamaMLP(
              (gate_proj): Linear(in_features=4096, out_features=14336, bias=False)
              (up_proj): Linear(in_features=4096, out_features=14336, bias=False)
              (down_proj): Linear(in_features=14336, out_features=4096, bias=False)
              (act_fn): SiLU()
            )
            (input_layernorm): LlamaRMSNorm((4096,), eps=1e-05)
            (post_attention_layernorm): LlamaRMSNorm((4096,), eps=1e-05)
          )
          (18): LlamaDecoderLayer(
            (self_attn): LlamaAttention(
              (q_proj): Linear(in_features=4096, out_features=4096, bias=False)
              (k_proj): Linear(in_features=4096, out_features=1024, bias=False)
              (v_proj): Linear(in_features=4096, out_features=1024, bias=False)
              (o_proj): Linear(in_features=4096, out_features=4096, bias=False)
              (rotary_emb): LlamaRotaryEmbedding()
            )
            (mlp): LlamaMLP(
              (gate_proj): Linear(in_features=4096, out_features=14336, bias=False)
              (up_proj): Linear(in_features=4096, out_features=14336, bias=False)
              (down_proj): Linear(in_features=14336, out_features=4096, bias=False)
              (act_fn): SiLU()
            )
            (input_layernorm): LlamaRMSNorm((4096,), eps=1e-05)
            (post_attention_layernorm): LlamaRMSNorm((4096,), eps=1e-05)
          )
          (19): LlamaDecoderLayer(
            (self_attn): LlamaAttention(
              (q_proj): Linear(in_features=4096, out_features=4096, bias=False)
              (k_proj): Linear(in_features=4096, out_features=1024, bias=False)
              (v_proj): Linear(in_features=4096, out_features=1024, bias=False)
              (o_proj): Linear(in_features=4096, out_features=4096, bias=False)
              (rotary_emb): LlamaRotaryEmbedding()
            )
            (mlp): LlamaMLP(
              (gate_proj): Linear(in_features=4096, out_features=14336, bias=False)
              (up_proj): Linear(in_features=4096, out_features=14336, bias=False)
              (down_proj): Linear(in_features=14336, out_features=4096, bias=False)
              (act_fn): SiLU()
            )
            (input_layernorm): LlamaRMSNorm((4096,), eps=1e-05)
            (post_attention_layernorm): LlamaRMSNorm((4096,), eps=1e-05)
          )
          (20): LlamaDecoderLayer(
            (self_attn): LlamaAttention(
              (q_proj): Linear(in_features=4096, out_features=4096, bias=False)
              (k_proj): Linear(in_features=4096, out_features=1024, bias=False)
              (v_proj): Linear(in_features=4096, out_features=1024, bias=False)
              (o_proj): Linear(in_features=4096, out_features=4096, bias=False)
              (rotary_emb): LlamaRotaryEmbedding()
            )
            (mlp): LlamaMLP(
              (gate_proj): Linear(in_features=4096, out_features=14336, bias=False)
              (up_proj): Linear(in_features=4096, out_features=14336, bias=False)
              (down_proj): Linear(in_features=14336, out_features=4096, bias=False)
              (act_fn): SiLU()
            )
            (input_layernorm): LlamaRMSNorm((4096,), eps=1e-05)
            (post_attention_layernorm): LlamaRMSNorm((4096,), eps=1e-05)
          )
          (21): LlamaDecoderLayer(
            (self_attn): LlamaAttention(
              (q_proj): Linear(in_features=4096, out_features=4096, bias=False)
              (k_proj): Linear(in_features=4096, out_features=1024, bias=False)
              (v_proj): Linear(in_features=4096, out_features=1024, bias=False)
              (o_proj): Linear(in_features=4096, out_features=4096, bias=False)
              (rotary_emb): LlamaRotaryEmbedding()
            )
            (mlp): LlamaMLP(
              (gate_proj): Linear(in_features=4096, out_features=14336, bias=False)
              (up_proj): Linear(in_features=4096, out_features=14336, bias=False)
              (down_proj): Linear(in_features=14336, out_features=4096, bias=False)
              (act_fn): SiLU()
            )
            (input_layernorm): LlamaRMSNorm((4096,), eps=1e-05)
            (post_attention_layernorm): LlamaRMSNorm((4096,), eps=1e-05)
          )
          (22): LlamaDecoderLayer(
            (self_attn): LlamaAttention(
              (q_proj): Linear(in_features=4096, out_features=4096, bias=False)
              (k_proj): Linear(in_features=4096, out_features=1024, bias=False)
              (v_proj): Linear(in_features=4096, out_features=1024, bias=False)
              (o_proj): Linear(in_features=4096, out_features=4096, bias=False)
              (rotary_emb): LlamaRotaryEmbedding()
            )
            (mlp): LlamaMLP(
              (gate_proj): Linear(in_features=4096, out_features=14336, bias=False)
              (up_proj): Linear(in_features=4096, out_features=14336, bias=False)
              (down_proj): Linear(in_features=14336, out_features=4096, bias=False)
              (act_fn): SiLU()
            )
            (input_layernorm): LlamaRMSNorm((4096,), eps=1e-05)
            (post_attention_layernorm): LlamaRMSNorm((4096,), eps=1e-05)
          )
          (23): LlamaDecoderLayer(
            (self_attn): LlamaAttention(
              (q_proj): Linear(in_features=4096, out_features=4096, bias=False)
              (k_proj): Linear(in_features=4096, out_features=1024, bias=False)
              (v_proj): Linear(in_features=4096, out_features=1024, bias=False)
              (o_proj): Linear(in_features=4096, out_features=4096, bias=False)
              (rotary_emb): LlamaRotaryEmbedding()
            )
            (mlp): LlamaMLP(
              (gate_proj): Linear(in_features=4096, out_features=14336, bias=False)
              (up_proj): Linear(in_features=4096, out_features=14336, bias=False)
              (down_proj): Linear(in_features=14336, out_features=4096, bias=False)
              (act_fn): SiLU()
            )
            (input_layernorm): LlamaRMSNorm((4096,), eps=1e-05)
            (post_attention_layernorm): LlamaRMSNorm((4096,), eps=1e-05)
          )
          (24): LlamaDecoderLayer(
            (self_attn): LlamaAttention(
              (q_proj): Linear(in_features=4096, out_features=4096, bias=False)
              (k_proj): Linear(in_features=4096, out_features=1024, bias=False)
              (v_proj): Linear(in_features=4096, out_features=1024, bias=False)
              (o_proj): Linear(in_features=4096, out_features=4096, bias=False)
              (rotary_emb): LlamaRotaryEmbedding()
            )
            (mlp): LlamaMLP(
              (gate_proj): Linear(in_features=4096, out_features=14336, bias=False)
              (up_proj): Linear(in_features=4096, out_features=14336, bias=False)
              (down_proj): Linear(in_features=14336, out_features=4096, bias=False)
              (act_fn): SiLU()
            )
            (input_layernorm): LlamaRMSNorm((4096,), eps=1e-05)
            (post_attention_layernorm): LlamaRMSNorm((4096,), eps=1e-05)
          )
          (25): LlamaDecoderLayer(
            (self_attn): LlamaAttention(
              (q_proj): Linear(in_features=4096, out_features=4096, bias=False)
              (k_proj): Linear(in_features=4096, out_features=1024, bias=False)
              (v_proj): Linear(in_features=4096, out_features=1024, bias=False)
              (o_proj): Linear(in_features=4096, out_features=4096, bias=False)
              (rotary_emb): LlamaRotaryEmbedding()
            )
            (mlp): LlamaMLP(
              (gate_proj): Linear(in_features=4096, out_features=14336, bias=False)
              (up_proj): Linear(in_features=4096, out_features=14336, bias=False)
              (down_proj): Linear(in_features=14336, out_features=4096, bias=False)
              (act_fn): SiLU()
            )
            (input_layernorm): LlamaRMSNorm((4096,), eps=1e-05)
            (post_attention_layernorm): LlamaRMSNorm((4096,), eps=1e-05)
          )
          (26): LlamaDecoderLayer(
            (self_attn): LlamaAttention(
              (q_proj): Linear(in_features=4096, out_features=4096, bias=False)
              (k_proj): Linear(in_features=4096, out_features=1024, bias=False)
              (v_proj): Linear(in_features=4096, out_features=1024, bias=False)
              (o_proj): Linear(in_features=4096, out_features=4096, bias=False)
              (rotary_emb): LlamaRotaryEmbedding()
            )
            (mlp): LlamaMLP(
              (gate_proj): Linear(in_features=4096, out_features=14336, bias=False)
              (up_proj): Linear(in_features=4096, out_features=14336, bias=False)
              (down_proj): Linear(in_features=14336, out_features=4096, bias=False)
              (act_fn): SiLU()
            )
            (input_layernorm): LlamaRMSNorm((4096,), eps=1e-05)
            (post_attention_layernorm): LlamaRMSNorm((4096,), eps=1e-05)
          )
          (27): LlamaDecoderLayer(
            (self_attn): LlamaAttention(
              (q_proj): Linear(in_features=4096, out_features=4096, bias=False)
              (k_proj): Linear(in_features=4096, out_features=1024, bias=False)
              (v_proj): Linear(in_features=4096, out_features=1024, bias=False)
              (o_proj): Linear(in_features=4096, out_features=4096, bias=False)
              (rotary_emb): LlamaRotaryEmbedding()
            )
            (mlp): LlamaMLP(
              (gate_proj): Linear(in_features=4096, out_features=14336, bias=False)
              (up_proj): Linear(in_features=4096, out_features=14336, bias=False)
              (down_proj): Linear(in_features=14336, out_features=4096, bias=False)
              (act_fn): SiLU()
            )
            (input_layernorm): LlamaRMSNorm((4096,), eps=1e-05)
            (post_attention_layernorm): LlamaRMSNorm((4096,), eps=1e-05)
          )
          (28): LlamaDecoderLayer(
            (self_attn): LlamaAttention(
              (q_proj): Linear(in_features=4096, out_features=4096, bias=False)
              (k_proj): Linear(in_features=4096, out_features=1024, bias=False)
              (v_proj): Linear(in_features=4096, out_features=1024, bias=False)
              (o_proj): Linear(in_features=4096, out_features=4096, bias=False)
              (rotary_emb): LlamaRotaryEmbedding()
            )
            (mlp): LlamaMLP(
              (gate_proj): Linear(in_features=4096, out_features=14336, bias=False)
              (up_proj): Linear(in_features=4096, out_features=14336, bias=False)
              (down_proj): Linear(in_features=14336, out_features=4096, bias=False)
              (act_fn): SiLU()
            )
            (input_layernorm): LlamaRMSNorm((4096,), eps=1e-05)
            (post_attention_layernorm): LlamaRMSNorm((4096,), eps=1e-05)
          )
          (29): LlamaDecoderLayer(
            (self_attn): LlamaAttention(
              (q_proj): Linear(in_features=4096, out_features=4096, bias=False)
              (k_proj): Linear(in_features=4096, out_features=1024, bias=False)
              (v_proj): Linear(in_features=4096, out_features=1024, bias=False)
              (o_proj): Linear(in_features=4096, out_features=4096, bias=False)
              (rotary_emb): LlamaRotaryEmbedding()
            )
            (mlp): LlamaMLP(
              (gate_proj): Linear(in_features=4096, out_features=14336, bias=False)
              (up_proj): Linear(in_features=4096, out_features=14336, bias=False)
              (down_proj): Linear(in_features=14336, out_features=4096, bias=False)
              (act_fn): SiLU()
            )
            (input_layernorm): LlamaRMSNorm((4096,), eps=1e-05)
            (post_attention_layernorm): LlamaRMSNorm((4096,), eps=1e-05)
          )
          (30): LlamaDecoderLayer(
            (self_attn): LlamaAttention(
              (q_proj): Linear(in_features=4096, out_features=4096, bias=False)
              (k_proj): Linear(in_features=4096, out_features=1024, bias=False)
              (v_proj): Linear(in_features=4096, out_features=1024, bias=False)
              (o_proj): Linear(in_features=4096, out_features=4096, bias=False)
              (rotary_emb): LlamaRotaryEmbedding()
            )
            (mlp): LlamaMLP(
              (gate_proj): Linear(in_features=4096, out_features=14336, bias=False)
              (up_proj): Linear(in_features=4096, out_features=14336, bias=False)
              (down_proj): Linear(in_features=14336, out_features=4096, bias=False)
              (act_fn): SiLU()
            )
            (input_layernorm): LlamaRMSNorm((4096,), eps=1e-05)
            (post_attention_layernorm): LlamaRMSNorm((4096,), eps=1e-05)
          )
          (31): LlamaDecoderLayer(
            (self_attn): LlamaAttention(
              (q_proj): Linear(in_features=4096, out_features=4096, bias=False)
              (k_proj): Linear(in_features=4096, out_features=1024, bias=False)
              (v_proj): Linear(in_features=4096, out_features=1024, bias=False)
              (o_proj): Linear(in_features=4096, out_features=4096, bias=False)
              (rotary_emb): LlamaRotaryEmbedding()
            )
            (mlp): LlamaMLP(
              (gate_proj): Linear(in_features=4096, out_features=14336, bias=False)
              (up_proj): Linear(in_features=4096, out_features=14336, bias=False)
              (down_proj): Linear(in_features=14336, out_features=4096, bias=False)
              (act_fn): SiLU()
            )
            (input_layernorm): LlamaRMSNorm((4096,), eps=1e-05)
            (post_attention_layernorm): LlamaRMSNorm((4096,), eps=1e-05)
          )
        )
        (norm): LlamaRMSNorm((4096,), eps=1e-05)
        (rotary_emb): LlamaRotaryEmbedding()
      )
      (lm_head): Linear(in_features=4096, out_features=32256, bias=False)
    )
  )
)
####################
early stopping config.
####################
Patience: 3
Threshold: 0.01
####################
training_args config.
####################
Mini Batch Size: 2
Gradient Accumulation: 64
Effective Batch Size: 128
LR: 3e-05
# Epochs:1
After 100 Effective Batch, The Model Will Be Evaluated
Effective Batch 100.0 Validation Loss: 10.19426330510272
…
